…
out(0.5),            #由于使用CPU镜像，精简网络，若为GPU镜像可添加该层            #nn.Linear(4096, 4096),            #nn.ReLU(),            #nn.Dropout(0.5),            # 输出层。由于这里使用Fashion-MNIST，所以用类别数为10，而非论文中的1000            nn.Linear(4096, 10),        )    def forward(self, img):  # 把 self.conv 和 self.fc 连接起来        feature = self.conv(img)  # 输出 4 维：batch_size * channels * h * w        output = self.fc(feature.view(img.shape[0], -1))  # 变成 2 维：batch_size * hiddens        return output</code></pre><pre><code class="lang-python">net = AlexNet()print(net)</code></pre><pre><code>AlexNet(  (conv): Sequential(    (0): Conv2d(1, 96, kernel_size=(11, 11), stride=(4, 4))    (1): ReLU()    (2): MaxPool2d(kernel_size=3, stride=2, padding=0, dilation=1, ceil_mode=False)    (3): Conv2d(96, 256, kernel_size=(5, 5), stride=(1, 1), padding=(2, 2))    (4): ReLU()    (5): MaxPool2d(kernel_size=3, stride=2, padding=0, dilation=1, ceil_mode=False)    (6): Conv2d(256, 384, kernel_size=(3, 3), stride=(1, 1), padding=(1, 1))    (7): ReLU()    (8): Conv2d(384, 384, kernel_size=(3, 3), stride=(1, 1), padding=(1, 1))    (9): ReLU()    (10): Conv2d(384, 256, kernel_size=(3, 3), stride=(1, 1), padding=(1, 1))    (11): ReLU()    (12): MaxPool2d(kernel_size=3, stride=2, padding=0, dilation=1, ceil_mode=False)  )  (fc): Sequential(    (0): Linear(in_features=6400, out_features=4096, bias=True)    (1): ReLU()    (2): Dropout(p=0.5, inplace=False)    (3): Linear(in_features=4096, out_features=10, bias=True)  ))</code></pre><h3 id="载入数据集"><a href="#载入数据集" class="headerlink" title="载入数据集"></a>载入数据集</h3><pre><code class="lang-python"># 本函数已保存在d2lzh_pytorch包中方便以后使用def load_data_fashion_mnist(batch_size, resize=None, root=&#39;/home/kesci/input/FashionMNIST2065&#39;):    &quot;&quot;&quot;Download the fashion mnist dataset and then load into memory.&quot;&quot
…
utput shape:  torch.Size([1, 256, 28, 28])vgg_block_4 output shape:  torch.Size([1, 512, 14, 14])vgg_block_5 output shape:  torch.Size([1, 512, 7, 7])fc output shape:  torch.Size([1, 10])</code></pre><pre><code class="lang-python">ratio = 8  # Fashion数据集不用太多参数，采用小一点的模型，也防止过拟合small_conv_arch = [(1, 1, 64//ratio), (1, 64//ratio, 128//ratio), (2, 128//ratio, 256//ratio),                    (2, 256//ratio, 512//ratio), (2, 512//ratio, 512//ratio)]net = vgg(small_conv_arch, fc_features // ratio, fc_hidden_units // ratio)print(net)</code></pre><pre><code>Sequential(  (vgg_block_1): Sequential(    (0): Conv2d(1, 8, kernel_size=(3, 3), stride=(1, 1), padding=(1, 1))    (1): ReLU()    (2): MaxPool2d(kernel_size=2, stride=2, padding=0, dilation=1, ceil_mode=False)  )  (vgg_block_2): Sequential(    (0): Conv2d(8, 16, kernel_size=(3, 3), stride=(1, 1), padding=(1, 1))    (1): ReLU()    (2): MaxPool2d(kernel_size=2, stride=2, padding=0, dilation=1, ceil_mode=False)  )  (vgg_block_3): Sequential(    (0): Conv2d(16, 32, kernel_size=(3, 3), stride=(1, 1), padding=(1, 1))    (1): ReLU()    (2): Conv2d(32, 32, kernel_size=(3, 3), stride=(1, 1), padding=(1, 1))    (3): ReLU()    (4): MaxPool2d(kernel_size=2, stride=2, padding=0, dilation=1, ceil_mode=False)  )  (vgg_block_4): Sequential(    (0): Conv2d(32, 64, kernel_size=(3, 3), stride=(1, 1), padding=(1, 1))    (1): ReLU()    (2): Conv2d(64, 64, kernel_size=(3, 3), stride=(1, 1), padding=(1, 1))    (3): ReLU()    (4): MaxPool2d(kernel_size=2, stride=2, padding=0, dilation=1, ceil_mode=False)  )  (vgg_block_5): Sequential(    (0): Conv2d(64, 64, kernel_size=(3, 3), stride=(1, 1), padding=(1, 1))    (1): ReLU()    (2): Conv2d(64, 64, kernel_size=(3, 3), stride=(1, 1), padding=(1, 1))    (3): ReLU()    (4): MaxPool2d(kernel_size=2, stride=2, padding=0, dilation=1, ceil_mode=False)  )  (fc): Sequential(    (0): FlattenLayer()    (1): Linear(in_features=3136, out_features=512, bias=True)    (2): ReLU()    (3): Dropout(p=0.5, inplace=False)    (4): Linear(in_features=512, out_features=512, bias=True)    (5): ReLU()    (6): Dropout(p=0.5, inplace=False)    (7): Linear(in_features=512, out_features=10, bias=True)  ))</code></pre><pre><code class="lang-python">batchsize=16#batch_size = 64# 如出现“out of memory”的报错信息，可减小batch_size或resize# train_iter, test_iter = d2l.load_data_fashion_mnist(batch_size, resize=224)lr, num_epochs = 0.001, 5optimizer = torch.optim.Adam(net.parameters(), lr=lr)d2l.train_ch5(net, train_iter, test_iter, batch_size, optimizer, device, num_ep
…
